tokens/zipzop-api-2/Default/optimization_guide_prediction_model_downloads/92b20e46-2d9a-4328-a687-38dc2bf4e998/model.tflite (tflite, 409956 bytes, 166 tensors)

context_transformer_0/bottleneck_input/norm/add f4 [32]
000000 39 cf ac 3d 9f e3 e3 3c fd 1b 80 bc b0 72 5a bd
       0.08437962 0.0278185 -0.015638346 -0.05333203
000010 54 52 93 bc eb 0e b5 bc be e4 10 3e d2 1d f9 bb
       -0.017983593 -0.02210184 0.14149758 -0.007602432
000020 74 f0 1f be 42 1b 1d 3c 4e 0a 9e 3d f8 5c db bc
       -0.1561907 0.009589018 0.07716809 -0.02677773
000030 07 05 d1 3d f0 51 84 bd a7 ed 1e bd 7c 09 7a 3b
       0.10206037 -0.06460941 -0.03880086 0.0038152626
000040 b6 56 ee ba 97 42 80 3d 5e a0 3b bd b4 ca 96 bd
       -0.0018183801 0.06262701 -0.045807235 -0.07362881
000050 2a 23 3f 3e 6a 65 fe 3d f1 6e db 3d 77 52 ae 3b
       0.18665758 0.12421687 0.1071452 0.005319889
000060 94 1f d5 3d a8 26 03 3d 84 21 0e bd d5 26 c8 3c
       0.10406414 0.032019287 -0.03469993 0.024432579
000070 a8 ee 6b 3e f7 df 81 3d 5e af c2 3c 4c 2f 73 bd
       0.23040259 0.06341546 0.023765262 -0.059371278

context_transformer_1/bottleneck_input/norm/add f4 [32]
000000 a1 64 5f 3d dd 1d a3 3d 9b 1d ab 3d e7 13 66 3e
       0.054539327 0.0796468 0.08355256 0.2246853
000010 4e db dc bd e6 7a db 3c 34 59 3e bd 42 21 fb bd
       -0.107840165 0.026792001 -0.04647179 -0.12262203
000020 d3 ab dd 3d dc 54 b0 bd ce e4 21 3e 32 7f f9 bd
       0.108237885 -0.08609936 0.15809938 -0.12182464
000030 8c 56 20 3d a8 ba 5a bd 3d 52 38 3d 4f 5e 97 bc
       0.039145038 -0.053400666 0.045000304 -0.018477587
000040 10 5b 4b bd 0f 14 3c bd 9b 53 14 3e 4c 39 e7 bd
       -0.04964739 -0.045917567 0.14485018 -0.112902254
000050 04 8a 85 bc 90 ee 76 bd 7c ad 10 bb 66 0c cc bd
       -0.016301163 -0.060286105 -0.002207606 -0.09963302
000060 28 7a d6 3b 6c 8d ad bd 9f 6c 91 3d 45 61 27 be
       0.006545324 -0.0847424 0.07100796 -0.16345699
000070 7b 82 0e 3e c3 c3 e6 bd f0 2e 06 be 7d 7f 78 3d
       0.13916962 -0.11267807 -0.13103843 0.060668457

mention_transformer_0/bottleneck_input/norm/add f4 [32]
000000 32 4a 84 3c 4a c2 51 3e 9c f9 85 bd f4 54 fa bd
       0.01614866 0.20484272 -0.0654175 -0.12223235
000010 2f 20 8b 3d fe 7e d7 3d 57 f7 24 3e 0c b9 07 be
       0.06793248 0.10522269 0.16109978 -0.13254184
000020 01 fc 9f bd c8 82 a7 bc be 10 36 be 12 5e 44 3e
       -0.07811738 -0.020448104 -0.17779824 0.1917651
000030 c7 f5 6a 3d 66 ca 88 bc 67 01 81 bd 54 c9 dd 3d
       0.057363298 -0.016698074 -0.062990956 0.10829416
000040 a4 5b 6b 3d 6c fd 15 3d 26 f7 8e 3d 63 52 27 3e
       0.057460442 0.036618635 0.069807336 0.16340022
000050 f1 e0 61 3d 00 99 20 bd 02 96 10 bd 4a 31 17 3e
       0.05514616 -0.039208412 -0.03529931 0.14764896
000060 da 27 76 bd 28 87 06 be c8 f0 d6 3d a4 5f 6e 3d
       -0.0600966 -0.13137496 0.10495144 0.05819668
000070 ea 8c b8 3d b6 dc 80 3c ce 5e d7 bd 94 ac 9d bc
       0.09011252 0.015730243 -0.105161294 -0.01924733

mention_transformer_1/bottleneck_input/norm/add f4 [32]
000000 93 dd 81 be b2 04 61 3e 1a 23 29 bf 5a 60 b6 3d
       -0.2536436 0.21974447 -0.66069186 0.08905096
000010 9e f2 e3 be e6 c3 2e be 59 9b 9d be 12 17 43 bc
       -0.4452104 -0.17066917 -0.30782583 -0.011907356
000020 ff 91 85 3d 36 d0 96 bd 0f bd e6 3a 64 41 9b 3e
       0.06521987 -0.07363932 0.0017603951 0.30323327
000030 25 3c 4e be 1c 87 c4 3d 8e 1e 2a bc b4 ab 4b 3b
       -0.20140131 0.095960826 -0.010383261 0.0031077685
000040 f4 3d 4d be 7e 75 21 3d 89 b3 e8 3e 2f b9 2b 3e
       -0.20043164 0.03941869 0.45449474 0.1676986
000050 f8 d0 57 3d bc 5e 30 bd b8 66 b1 3c d3 9c 2e be
       0.052689523 -0.043059096 0.021655425 -0.17052011
000060 1f 7c 4b 3e 5b 62 06 be 2a 97 85 3d 34 18 da 3b
       0.19871567 -0.13123457 0.06522973 0.0066557173
000070 74 da 8e 3c c2 66 c2 bd 92 c7 c1 3e bc 1d 2e 3d
       0.017438151 -0.09492256 0.37847573 0.042508826

context_transformer_0/attention/value/add;context_transformer_0/attention/value/einsum/Einsum;context_transformer_0/attention/value/add/ReadVariableOp/resource f4 [32]
000000 fb 8a 91 bc 87 49 1c 3d 6b b5 59 3d e2 c1 93 bb
       -0.017766466 0.03815606 0.05315153 -0.0045091966
000010 99 db ad 3d 57 96 02 bd 78 13 98 bd b1 d0 55 bd
       0.084891506 -0.031881656 -0.07425588 -0.052200977
000020 4e d9 74 bd ed 1b b8 3c 3b 4d 0d 3d 12 b2 44 bd
       -0.05977755 0.022474254 0.03449748 -0.048021384
000030 57 ad 8e bc 2c d1 ea 3c 85 af 42 bd a0 c9 6b 3d
       -0.01741664 0.028664194 -0.04753067 0.05756533
000040 20 4c 6a bb 56 e1 0c ba 6f b3 3c bd 53 a3 c0 bd
       -0.003575094 -0.0005374154 -0.04606956 -0.094061516
000050 42 d6 7f 3a ca ec 36 3d 6e 5d 9b ba 01 04 86 3d
       0.0009759405 0.044659413 -0.0011853406 0.065437324
000060 06 d8 ac bc 2e 94 a0 bd df 9e 8b bc 3f 20 79 bc
       -0.021099102 -0.07840763 -0.01704353 -0.015205442
000070 6e de 35 3d 31 2e 0c 3d 0b 09 65 bd c0 cf 7b 3d
       0.04440158 0.03422374 -0.055916827 0.061477423

context_transformer_0/bottleneck_input/norm/mul f4 [32, 32]
000000 d3 42 5b bd 65 bc 3d be 5b 8d 0c 3e 0c ac 88 3d
       -0.053530525 -0.18528898 0.13725798 0.0667344
000010 e1 e7 12 3d e4 b7 d3 3d 60 d6 de bd 2a fe ed bc
       0.03586567 0.10337809 -0.108807325 -0.029051859
000020 10 df b1 3e ef b7 da bd 34 e4 4a be 02 66 34 3e
       0.34740496 -0.10679614 -0.19813615 0.17617038
000030 c2 ce b7 3c 2e 30 b8 bd 7b 25 e5 be 90 c0 45 3e
       0.022437457 -0.089935645 -0.44755158 0.19311738
000040 c6 0a b3 3d 3c a0 59 3e 4b 19 b3 3e 0d f7 16 3e
       0.08742289 0.21252531 0.34980235 0.1474268
000050 92 b9 90 3d 19 89 e3 3e 17 b8 8c 3b 69 3a b4 be
       0.07066645 0.44440535 0.004294406 -0.35200813
000060 5a 87 71 3e a3 a8 a8 3d bf 7d 98 3e ef 2b e0 be
       0.23586789 0.0823529 0.29783437 -0.4378352
000070 89 bf 1c 3c d8 65 08 be 56 a4 fb 3d 21 07 f8 be
       0.00956715 -0.133201 0.12287204 -0.4844294
000080 df c2 24 3e b7 21 1e 3d b1 7e 49 3e b4 28 bf 3d
       0.16089962 0.03860637 0.19677235 0.093339354
000090 94 08 ba bd 0c a0 2f be ce 68 da bd d7 1b ca bc
       -0.090836674 -0.17150897 -0.10664521 -0.024671478
0000a0 82 89 44 3d 87 57 81 be fd 66 9e be 73 0d c1 3d
       0.0479827 -0.2526209 -0.3093795 0.09426393
0000b0 34 c2 ae 3c f3 29 df 3e d3 34 7c bd a9 ac fc bc
       0.021332838 0.43586692 -0.061573815 -0.03084405
0000c0 7c f4 49 be d3 61 18 be b0 d2 f9 bd a9 08 87 3e
       -0.1972217 -0.14881067 -0.121983886 0.26373795
0000d0 9d 30 ae bd 0c 1b 3d be c7 79 eb 3d f2 0c fd bd
       -0.08505366 -0.18467349 0.114978366 -0.12355985
0000e0 1b 68 ae 3e a3 a0 9c 3c 2b 62 22 be ed 6c 63 3e
       0.340638 0.019119566 -0.1585776 0.2220952
0000f0 a2 19 22 3e a9 5f dd 3e 96 3d 1e 3e e4 33 d2 3d
       0.1583009 0.43237045 0.1545318 0.102638036
000100 ce e4 80 bd 4b 86 4e 3e aa d3 7c 3d fb 92 0e 3e
       -0.06293641 0.20168416 0.061725296 0.13923256
000110 d8 f8 17 be 3f 5d a0 3d bb 6f 49 be d1 d3 e5 bc
       -0.1484102 0.07830285 -0.19671528 -0.028055103
000120 09 03 70 be 6a 4e 8f 3e 54 a6 cd 3d 5e d3 aa bd
       -0.23438658 0.27989513 0.1004149 -0.08341096
000130 60 ae 86 3d 49 17 02 bd 2b 5b f0 bc f5 b9 b6 bd
       0.06576228 -0.031760488 -0.029340347 -0.08922187
000140 29 ca 07 be 3b a0 27 bd 4f b1 1e bc a2 aa c1 bd
       -0.13260712 -0.040924292 -0.009685828 -0.09456374
000150 78 3a 2c bd 2a e7 27 bc 14 99 a6 bd c3 16 8e 3c
       -0.042047948 -0.010247985 -0.08134666 0.017344838
000160 6c 82 5d be eb 1e 76 bd ed 65 4e 3d 8b 46 a4 3e
       -0.21631783 -0.06008808 0.050390173 0.3208507
000170 a5 23 7b be 66 1c 8f be e8 92 cb bc 58 1d d2 3d
       -0.24525316 -0.27951354 -0.024850324 0.10259503
000180 be ba 23 3e 70 b1 2f 3e 16 fb 7b be 2f ea e9 be
       0.15989205 0.17157531 -0.246075 -0.4568648
000190 27 cb 28 3e 42 e9 d1 ba 3d 3a 71 be b4 5b 0c bf
       0.16483746 -0.0016014951 -0.23557372 -0.5482743
0001a0 3c 2d f0 3e 35 43 80 3e e6 48 a8 3e a3 75 49 3e
       0.4690951 0.25051275 0.32868117 0.19673781
0001b0 ee 67 70 3e ff 36 2f be cb 17 ae bd 85 cb 19 bd
       0.23477146 -0.17110823 -0.08500632 -0.037547607
0001c0 43 aa a9 3e 1b 81 95 bc 4d ff b5 be 8a 7e 28 3e
       0.33137712 -0.018250039 -0.35546342 0.16454521
0001d0 8d 07 32 3e 61 e1 09 3e 5a 94 2f be 7c 9a 21 be
       0.17385693 0.13464881 -0.17146435 -0.15781587
0001e0 27 8d fd 3c 5f b5 86 3d c8 11 60 3d 5a ea 27 3e
       0.030951096 0.065775625 0.054704458 0.16397992
0001f0 aa 1e 95 be c2 5c 19 3c b1 24 83 3e 03 2c 6c 3d
       -0.29124957 0.009360494 0.2561393 0.05765916
000200 ad 78 42 bd 40 fa 94 bc 22 9d e1 bd ed 13 ab be
       -0.047478367 -0.018185735 -0.11016299 -0.3341364
000210 ec 0e b0 3d 50 b5 d4 be 39 a7 1e 3e ef 3e a7 be
       0.08596596 -0.4154458 0.15493478 -0.32665202
000220 04 bd ba 3e c6 ca ca 3e 31 06 9f bd 78 29 04 3d
       0.36472332 0.3960783 -0.07764853 0.03226611
000230 bc 85 24 3e 20 80 7d 3e 73 69 a7 3e 34 0f 0e 3e
       0.1606664 0.24755907 0.3269764 0.13872987
000240 6f 41 b1 bc 48 c4 4f be 09 fd 0f 3e ee 71 20 3e
       -0.021637646 -0.20289719 0.14061369 0.1566846
000250 5c 53 7c be 05 c6 fb 3c c1 50 01 be 75 d5 36 bd
       -0.24641174 0.030734072 -0.12628461 -0.044637162
000260 76 31 68 3e 0c d6 01 3f 94 8c 9e be 69 fb 16 be
       0.22675118 0.50717235 -0.30966628 -0.14744343
000270 ad 46 45 be 7b fe c0 bd c0 bf 96 3c b7 84 a2 3e
       -0.19265242 -0.09423538 0.01840198 0.31741878
000280 e0 b3 2f 3e 66 f0 12 3d cc c6 d7 bd 04 b9 1b 3f
       0.1715846 0.035873793 -0.10535964 0.60829186
000290 50 d4 a6 3e 10 f4 d2 be d0 56 de 3e 77 ce d4 3e
       0.32583857 -0.4120183 0.43425608 0.4156377
0002a0 52 7e ce bd 5b b9 f9 3d c2 46 d9 bd e0 94 0c 3d
       -0.100826874 0.12193557 -0.10609199 0.034321666
0002b0 22 89 f3 bd 2f 1e 0e bf b4 7e 00 3d 95 7d 30 be
       -0.118913904 -0.55514807 0.031370834 -0.17235406
0002c0 ad 00 0d 3f 02 73 b1 bd 07 67 b2 be 01 83 26 bd
       0.55079156 -0.08664514 -0.3484423 -0.04065228
0002d0 00 a7 32 be 3a 3d 1b 3e dd 1f 03 be 79 54 e5 3e
       -0.17446518 0.15160075 -0.12805124 0.4479101
0002e0 8c c9 dd be c1 ff 9f 3e db 17 04 be 71 35 ba 3d
       -0.4331783 0.31249812 -0.12899725 0.090922244
0002f0 b4 7a aa bf 4e 36 55 3d b9 3d 02 3f 40 a7 24 3f
       -1.3318696 0.052053742 0.5087543 0.64317703
000300 cd 9a b4 bc 60 9e ac 3d c8 f6 f0 bc ce b9 40 bd
       -0.022046471 0.08428645 -0.02941455 -0.047052197
000310 1e 3c 28 3e 74 d2 19 3e ab 02 17 bf 8d 2a 84 be
       0.16429183 0.15021688 -0.58988446 -0.25813714
000320 15 bf 28 be a4 69 1a be 59 01 ab 3d d1 7e 02 3e
       -0.16479142 -0.15079361 0.083498664 0.12743689
000330 81 eb 26 3e 62 5f 05 be f9 7f d4 ba 9b 48 87 3c
       0.16300775 -0.13024667 -0.0016212455 0.016514113
000340 bd 70 db bd 26 0c d5 3e 74 6b ad be 14 de 14 3d
       -0.107148625 0.4161083 -0.33871043 0.036344603
000350 1f 29 1f be b9 09 d9 3e 06 1b 10 3e 94 87 69 bd
       -0.1554303 0.4239023 0.14072809 -0.057014063
000360 05 25 8c 3d 00 7b 35 be a9 2a cd 3d f3 24 5d be
       0.068429984 -0.17722702 0.100179024 -0.21596126
000370 c0 a3 9f 3d 03 47 2f 3e 17 18 42 be 44 10 20 be
       0.07794905 0.17116933 -0.18954502 -0.15631205
000380 1c d9 ea be 5d 91 2f be d6 cc 2a 3d 77 62 c5 3e
       -0.45868766 -0.17145295 0.041699253 0.38551685
000390 05 ae 8e bd ec 9b bb 3e 3f aa 43 3e 4d 2b 97 bd
       -0.06966785 0.36642396 0.19107912 -0.07381306
0003a0 cf a8 2c bf 40 3b 6c 3c 52 42 82 be e2 99 2a be
       -0.6744508 0.014418423 -0.25441223 -0.16660264
0003b0 f6 aa d9 bd 43 06 25 bf 45 4b 88 bd e8 54 e1 3d
       -0.10628311 -0.6446268 -0.066549815 0.11002523
0003c0 f8 12 9a 3e 88 17 14 be 9d 3b 2e bc 42 4f dd 3d
       0.30092597 -0.14462101 -0.01063433 0.10806133
0003d0 38 58 49 3e f6 dd 14 3e 21 5f 61 3e d4 3d 82 3d
       0.19662559 0.14537796 0.22008945 0.06359449
0003e0 38 f3 a6 bd 7c 41 0f 3c 1a e4 a4 bc 37 24 e8 bd
       -0.08151859 0.00874364 -0.020128299 -0.113350324
0003f0 39 6f 3f be 61 21 2c be 99 97 d9 be eb c1 43 bd
       -0.18694772 -0.16809608 -0.42498472 -0.047792356

context_transformer_0/kq_shared_bottleneck/norm/mul;context_transformer_0/kq_shared_bottleneck/norm/add;context_transformer_0/attention/key/einsum/Einsum;context_transformer_0/attention/key/add;context_transformer_0/attention/value/einsum/Einsum;context_transformer_0/attention/key/add/ReadVariableOp/resource f4 [32]
000000 bd eb 1a 3e 9c 39 bd 3d 66 1b 28 be cb 86 79 3d
       0.1512899 0.09239504 -0.16416702 0.060919564
000010 bf 36 1c 3e c9 0b 45 be 96 dd 9f bc 48 9e e6 bd
       0.15255259 -0.19242777 -0.01951484 -0.112606585
000020 82 dd aa bd 7f 98 bf bc 71 40 d5 3d 20 af cc bc
       -0.083430305 -0.023388145 0.10412682 -0.02498585
000030 64 8f 54 3c d2 27 1c 3d ad 86 a7 3c ce 33 b3 ba
       0.01297364 0.038123913 0.02044996 -0.0013672055
000040 22 84 2a 3d a4 e4 94 3d 46 ec 87 3d 97 64 b6 3d
       0.041629918 0.07270172 0.066368625 0.08905905
000050 b7 ec 3a bd 06 d2 54 bd 8c 13 52 bd 94 a8 f5 bd
       -0.045635905 -0.051958106 -0.051288173 -0.11995044
000060 8c 2a 70 bd 3f 28 ea 3d e3 eb 82 bd 35 89 ce 3d
       -0.058634326 0.114334576 -0.06392648 0.10084764
000070 2f c8 23 3d f2 03 b7 3d 2b 2a fe bd f2 96 12 be
       0.03998583 0.089362994 -0.12410387 -0.14315394

context_transformer_0/kq_shared_bottleneck/norm/mul;context_transformer_0/kq_shared_bottleneck/norm/add;context_transformer_0/attention/key/einsum/Einsum;context_transformer_0/attention/key/add;context_transformer_0/attention/value/einsum/Einsum;context_transformer_0/attention/key/add/ReadVariableOp/resource1 f4 [32, 32]
000000 41 dd c6 bd 42 e8 9d 3d 6b e8 c2 3c 5f f6 90 3d
       -0.097101696 0.07710315 0.023792466 0.070782416
000010 39 cb fb bd 2f 9f 66 bd d6 fb 13 3e 7f c7 c9 bd
       -0.12294621 -0.056304153 0.14451537 -0.09852504
000020 7c 93 12 3c 14 ae 1e be f1 54 0a 3e 98 c9 68 3c
       0.008946296 -0.15496093 0.13508965 0.01420822
000030 76 75 c4 bd d5 57 59 3d 2d 82 c1 3d 22 d9 af bd
       -0.095927164 0.05306228 0.09448657 -0.08586337
000040 cb df 40 3e 38 ab 03 3c e3 2c 38 3d 4f 4d 41 3e
       0.1883537 0.008036427 0.044964682 0.18877147
000050 3f e5 d5 bd ee ea 36 be 05 e3 e4 3d a6 4b d7 bd
       -0.10444116 -0.17863056 0.11176113 -0.10512476
000060 8d b1 03 be 26 54 26 be 23 da 41 3e 61 19 8d bd
       -0.12860699 -0.16243038 0.18930869 -0.06889606
000070 fd 18 04 be 0d e9 94 bd 01 97 13 bf dd 30 01 be
       -0.12900157 -0.072710134 -0.5765229 -0.12616296
000080 20 8a fc bd 71 c5 ed 3c 5e 2f a0 3c 34 62 96 bd
       -0.12331033 0.029024811 0.019553836 -0.073429495
000090 f5 71 0d be f0 9f cd bd fa 87 dd 3d d7 bb 99 bd
       -0.13813002 -0.10040271 0.10816951 -0.07506531
0000a0 eb 6c 38 bd 64 9d 0a be 51 64 42 3e 47 4d 3b 3b
       -0.045025747 -0.13536602 0.1898358 0.0028579996
0000b0 43 4d d3 bd 5f 16 b8 bc e0 35 7e be a2 31 24 3e
       -0.10317471 -0.022471605 -0.24825239 0.16034558
0000c0 93 57 0e 3e ee 30 85 bd ff 3a aa 3d 6f 5d 4f 3d
       0.13900594 -0.06503473 0.08312034 0.050626215
0000d0 1d 20 10 be 71 f1 8b be e1 3c cc 3d 52 2e ae bd
       -0.1407475 -0.27332643 0.09972549 -0.08504929
0000e0 53 a1 98 bd de ad 02 be 36 35 75 3e ce c9 a9 bd
       -0.07452645 -0.12761638 0.2394608 -0.08290444
0000f0 45 0e 0d be 4d 4a 92 3b 7f ed eb be 06 d2 06 be
       -0.13774975 0.0044644237 -0.46079633 -0.13166055
000100 1a 35 fc 3d 74 14 61 bd 93 63 06 3d 3c 00 57 bc
       0.12314816 -0.054951146 0.032809805 -0.0131226145
000110 95 e3 f0 3d a5 96 14 bd 21 de 15 be a5 1b 8a 3d
       0.11762158 -0.03627648 -0.14635517 0.06743554
000120 af 99 9d 3d 08 52 31 3e 9e 0f 22 be 4d e8 ef bc
       0.076953284 0.17316449 -0.1582627 -0.029285574
000130 4f ec 18 3e c5 a8 4e bd 82 43 5d 3d 1c 19 10 3d
       0.14933895 -0.05045392 0.05401946 0.035180196
000140 00 f9 20 be 02 22 b8 3b ac bc 8d bd 88 78 0f be
       -0.15719986 0.0056192884 -0.06920752 -0.14010823
000150 4e 42 0b 3e 5a 07 67 3e 76 54 02 be 2e 11 08 3e
       0.13599512 0.22561398 -0.12727532 0.13287804
000160 ff 42 07 3e 10 a1 0f 3e 16 40 3e be 69 84 10 3e
       0.1320915 0.14026284 -0.18579134 0.1411301
000170 c7 ef 22 3e da 0e 2f 3d ce de 1f 3f f2 2b ee 3d
       0.1591178 0.042738773 0.6244935 0.11629476
000180 a1 40 da 3c b3 95 cd bd 2c 11 0b 3e 32 86 e2 3d
       0.026642146 -0.100383185 0.1358077 0.11060752
000190 31 b0 11 bd 07 52 d3 bd aa e9 83 bd 0f e2 98 bc
       -0.03556842 -0.1031838 -0.06441052 -0.01866248
0001a0 63 87 9f 3e 9e 1f 2a 3c 36 04 10 3e f8 61 20 be
       0.3115798 0.010383515 0.14064106 -0.15662372
0001b0 a5 dd 9a bd da df 90 3d 53 ce 4e 3f 98 63 2f be
       -0.075618066 0.07073946 0.80783576 -0.17127836
0001c0 4c e9 13 bd d3 53 6a 3e bd 84 28 bd 69 41 64 3d
       -0.03611116 0.22883539 -0.041142214 0.055726442
0001d0 16 46 05 be ae dd 76 be e2 61 9c bd b9 e2 6e bd
       -0.13015017 -0.24108002 -0.07635857 -0.05832169
0001e0 e6 2f 75 bd c6 b5 4d bc b5 fc a8 3c b9 c7 26 3d
       -0.059860133 -0.012555545 0.020628313 0.040717814
0001f0 aa fc 9d 3c 2c 8c 3c 3d 32 df 68 ba df 51 f4 bd
       0.019285519 0.046032116 -0.00088833563 -0.11929678
000200 27 af d5 bd 39 b3 84 3d 93 e0 dc 3c d8 ad d2 3a
       -0.10433798 0.064794965 0.026962554 0.0016073538
000210 af 63 e5 bd 2e eb b0 3c 2c 5c 16 3e 93 ad 74 bd
       -0.11200654 0.021596517 0.14683598 -0.059735846
000220 b2 c5 5e bd e7 1f 03 be 27 56 12 3e f6 4e ac 3c
       -0.054387756 -0.12805139 0.14290677 0.021033745
000230 16 7e cc bd ad 09 48 3d 04 90 cf 3c 67 22 08 bd
       -0.099849865 0.048837353 0.025337227 -0.033235934
000240 f5 99 36 3e be c1 bd bb b1 db c8 3d d6 b1 2b 3e
       0.17832167 -0.005790918 0.09807528 0.16767058
000250 43 79 fd bd 69 cf 6c be d4 0b 07 3e 73 03 df bd
       -0.123766445 -0.23125996 0.13188106 -0.1088933
000260 fb cf ff bd 89 a7 da bd da 5f 54 3e ee 3e ae bd
       -0.12490841 -0.10676486 0.2073969 -0.08508097
000270 dc b2 28 be 24 fd 50 bd 19 c6 14 bf de 74 da bd
       -0.1647448 -0.051022664 -0.58114773 -0.10666822
000280 f3 db 86 be f8 83 ee 3d 64 6c 10 be 22 8d 6b be
       -0.26339683 0.11646265 -0.14103848 -0.23003057
000290 f7 8a 1e bd 6c f8 aa be 83 33 24 3d 7b d1 1f bd
       -0.038706746 -0.33392656 0.040088188 -0.039018136
0002a0 7e 01 8a be bc 2b 0f bd cb 99 c1 bd 60 be 73 3d
       -0.26954263 -0.034953818 -0.09453162 0.059507728
0002b0 11 6b cf 3d 99 31 fa be f0 6f b3 bf 50 2e 48 3f
       0.10127843 -0.48865965 -1.4018536 0.7819567
0002c0 8e ef ef 3d da 94 04 bf b0 c7 3f bd 8b d6 50 bd
       0.11715613 -0.5178963 -0.046821296 -0.050985854
0002d0 d5 43 a4 3d 3a eb e4 3d 65 5f e6 3d e6 59 d6 3d
       0.080207504 0.111776784 0.11248664 0.104663655
0002e0 1b 45 cb 3c a6 e5 be 3b 5f af 8c 3c 02 02 db bd
       0.024813225 0.005825716 0.017173467 -0.10693742
0002f0 c5 4d 91 bd 3d 31 2c bd 23 aa 4f 3e 43 92 f8 3d
       -0.070949115 -0.042039145 0.20279746 0.12137272
000300 33 cb db 3d 35 8a 7c be 90 f7 7c 3e 6b de b6 bd
       0.107321166 -0.24662097 0.24703813 -0.089291416
000310 72 82 25 3b 2e 1b 0a be cc 5b 45 be 78 79 bb 3d
       0.0025254753 -0.1348693 -0.19273299 0.09154028
000320 eb 84 aa 3e a0 d7 e9 3d 1e db 1d 3e a1 fb 82 be
       0.33304533 0.1141808 0.15415618 -0.25582603
000330 79 9b aa bd c8 09 e7 3a b9 c0 12 3f 23 b4 b7 3d
       -0.08330435 0.0017626816 0.5732532 0.08969905
000340 48 91 0e be 40 f5 5c 3e 20 ff 5b bd 3d f2 02 be
       -0.13922608 0.2157793 -0.053710103 -0.12787719
000350 ad 8c 03 be 6c 58 a0 be 61 a1 f4 bd 77 0e 02 bd
       -0.12846632 -0.3131746 -0.11944843 -0.031752076
000360 75 d8 7c 3d 4f f8 b3 3c 47 2c 9d 3d de 65 4a 3d
       0.061729867 0.021968989 0.07674461 0.049413554
000370 04 45 88 3b f9 6d 66 3d e3 2a 74 3e e1 da ee bd
       0.004158618 0.05625722 0.23844485 -0.116628416
000380 7c 3f 9c 3d d9 39 c7 3b 07 0d 54 bd c5 0b cd 3d
       0.07629296 0.006079894 -0.051770236 0.100120105
000390 1d eb c9 3d d9 30 c4 3c dd 13 cc bd c5 a7 0b 3d
       0.098592974 0.023949074 -0.09964726 0.034095544
0003a0 43 58 f2 bc d0 9e b5 3d 0d 68 30 be 1b 4b 5b 3d
       -0.029583102 0.08868182 -0.17227192 0.053538423
0003b0 c4 f6 d2 3d c6 bb 6d bd 9d 27 8b 3d fc 10 b1 bd
       0.10300973 -0.058040403 0.06794665 -0.08645818
0003c0 f1 62 9d bd ff eb a8 bc 93 07 92 bd 84 26 c1 bc
       -0.07684887 -0.020620344 -0.07130351 -0.023577936
0003d0 c7 96 14 3e c0 ab 82 3e 58 7f a3 bd 48 63 b4 3d
       0.14510642 0.2552166 -0.07983273 0.08807999
0003e0 41 e5 59 3d 6d be 8e 3d d1 5e 90 be 1e 02 8a 3d
       0.05319715 0.069699146 -0.2819734 0.06738685
0003f0 c8 29 c7 3d 6e 4f e0 3c 81 62 f5 3e 86 ed fd 3d
       0.09724766 0.027381625 0.47926715 0.123988196

context_transformer_0/kq_shared_bottleneck/norm/mul;context_transformer_0/kq_shared_bottleneck/norm/add;context_transformer_0/attention/query/einsum/Einsum;context_transformer_0/attention/query/add;context_transformer_0/attention/value/einsum/Einsum;context_transformer_0/attention/query/add/ReadVariableOp/resource;context_transformer_0/attention/Mul;context_transformer_0/attention/Mul/y f4 [32]
000000 f3 9d 9d bd 61 14 cf bd 5c 8b d8 3d 31 7d 47 3d
       -0.07696142 -0.10111309 0.10573456 0.048703376
000010 2b 62 bb bd 5c 52 9d bd 6c 0f 05 3d 3f be ac 3d
       -0.091495834 -0.076817244 0.03248541 0.08434724
000020 36 32 db 3d ac 59 16 3e ab b1 c2 bd bd 92 fa 3d
       0.10702936 0.14682645 -0.09506544 0.12235019
000030 f3 91 f6 bd bd 7b fc bd cf 5f 0d be 09 f5 02 be
       -0.12039556 -0.12328289 -0.1380608 -0.12788786
000040 94 fa 01 3e 0c c4 d3 3d fc 00 d5 3d 7f 9c 83 3d
       0.12693244 0.10340127 0.104005784 0.06426334
000050 92 c5 72 bd b2 78 2a bd 07 50 0c bc 50 51 dd bd
       -0.05927045 -0.04161901 -0.008564002 -0.10806525
000060 3f 9f 12 be fb af 3f be f8 85 ae bc 72 cf 27 be
       -0.1431856 -0.18719475 -0.021304116 -0.16387728
000070 fb 80 1d be 08 24 f1 bd 56 aa 40 3e 4b 0a 37 3e
       -0.15381233 -0.117744505 0.18814978 0.1787502

context_transformer_0/kq_shared_bottleneck/norm/mul;context_transformer_0/kq_shared_bottleneck/norm/add;context_transformer_0/attention/query/einsum/Einsum;context_transformer_0/attention/query/add;context_transformer_0/attention/value/einsum/Einsum;context_transformer_0/attention/query/add/ReadVariableOp/resource;context_transformer_0/attention/Mul;context_transformer_0/attention/Mul/y1 f4 [32, 32]
000000 ee 79 ba 3c 04 be 8b bd e8 98 c0 3c e5 22 a4 bd
       0.022763219 -0.06823352 0.023510411 -0.08014468
000010 a8 08 5f 3b 80 7c b8 3d 08 f2 49 bd 24 69 09 bd
       0.003403226 0.090081215 -0.049303085 -0.033547536
000020 8d 9b 9e 3c ee b6 37 3d d6 7b ac 3c 28 bf 11 bd
       0.019361282 0.04485219 0.021055143 -0.03558269
000030 76 97 00 3d a9 e6 e2 3c fc 51 df bd 62 74 c9 3c
       0.031394444 0.027697878 -0.10904309 0.024591628
000040 bb 2a 6f bd b1 4f 0c be f4 a7 eb 3c d3 3f a5 bd
       -0.05839036 -0.13702275 0.02876661 -0.08068814
000050 d0 c7 dc 3b 92 c9 42 bc d9 44 7a bc ff 1b 6f 3c
       0.0067376867 -0.011888878 -0.015275204 0.014594077
000060 8d 98 87 3d 4e 29 21 3d d0 8c 74 3d b9 04 c1 3c
       0.066208936 0.03934603 0.0597046 0.023561822
000070 8a 50 35 3d 5b c1 c1 3d ac 11 3a 3e 36 18 a0 bc
       0.04426626 0.09460708 0.18170804 -0.019542795
000080 f0 36 89 ba 48 cd 58 bd 4e 30 fc 3c b4 96 0d bd
       -0.0010468643 -0.052930146 0.030784752 -0.03456755
000090 04 36 2a 3c 8b ea 1a 3c f6 02 6e bd 29 7f 66 3b
       0.010388855 0.009455333 -0.058108293 0.0035171008
0000a0 01 b0 c8 3c b2 e3 36 3d 8f 1f 4c 3b 37 4b 56 bd
       0.024497988 0.04465074 0.003114674 -0.052317824
0000b0 ab fb 28 3d c7 bb e3 bc 3d 0c 13 be 9d 31 80 3d
       0.041255634 -0.0277995 -0.14360137 0.06259463
0000c0 f1 d4 44 bd b0 9e 06 be 40 69 9d 3c 44 28 fb bc
       -0.04805464 -0.13146472 0.019215226 -0.030658849
0000d0 01 71 d0 3c 88 81 87 39 2c a3 4f bc e3 f9 3c 3c
       0.02544451 0.00025845715 -0.012673181 0.011534187
0000e0 a0 ae 6d 3d 7c 8d f8 3c 42 42 0b 3c 36 4f 00 3d
       0.058027864 0.030340903 0.008499684 0.03132554
0000f0 1f f4 29 3d 29 8f 8f 3d 64 51 65 3e 76 5a 01 bc
       0.041492578 0.070097275 0.2239433 -0.007895103
000100 2c 71 08 bd 9c 0c 8f 3d 07 41 db bc c2 47 aa 3d
       -0.033311054 0.06984827 -0.026764406 0.08314468
000110 f7 d8 87 bc b6 33 8a bd 89 c6 3c 3d 90 9b 46 3d
       -0.01658295 -0.06748144 0.046087775 0.0484882
000120 d7 60 ea bc 26 5f 71 bd c8 c4 7f 3b 67 b3 c6 3c
       -0.02861063 -0.05892863 0.0039027203 0.024255468
000130 07 30 09 bd 49 e5 b6 bb 9c db 04 3e 73 1e 18 bd
       -0.033493068 -0.005581532 0.129744 -0.037138414
000140 dd 3d 86 3d e8 72 0a 3e 96 5c 70 bc e1 5c 9e 3d
       0.06554768 0.13520396 -0.014670512 0.07732559
000150 37 21 cd bc cb 65 c1 ba 8a c1 cf 3c e4 a8 af bc
       -0.025040252 -0.0014755068 0.025360841 -0.021442838
000160 4d f2 75 bd 7f 9b 2e bd 80 ce 06 bd 3c 9a 45 bd
       -0.06004553 -0.04262876 -0.032911777 -0.048242792
000170 3a 11 6d bd 31 9d dd bd fe 32 48 be 22 da 11 3b
       -0.057877757 -0.108209975 -0.19550702 0.0022255261
000180 51 c4 5d 3c 42 a1 3b bd c9 10 a9 3c 08 9d 5c 3c
       0.013535575 -0.045808084 0.020637887 0.013465174
000190 f5 a0 22 bd 0a 93 21 3e e5 bd 9c bc 84 f0 24 3e
       -0.03970428 0.15778747 -0.019133518 0.16107374
0001a0 2a 4a 64 3b f3 ce 25 bc d1 fe 90 3d a5 e4 8f bb
       0.0034834244 -0.010120141 0.07079852 -0.00439127
0001b0 ca f9 dc bc 40 63 9c 3d 61 b6 87 3c 2c fb e6 bc
       -0.026974577 0.07636118 0.016566457 -0.02819594
0001c0 80 b5 84 bc e7 67 20 bd 81 07 61 3d c1 98 ab bc
       -0.016199827 -0.03916159 0.054938797 -0.020946862
0001d0 08 65 37 bd 9b c7 80 bd 79 7d d2 3b 25 fa 25 bd
       -0.044774085 -0.06288072 0.006423649 -0.04052176
0001e0 b5 6f 12 3d 7b a4 0f bc 33 67 9e 3c f9 b6 b1 3c
       0.035751063 -0.008767243 0.019336319 0.021693693
0001f0 b8 cd ff 3b 24 9d a8 bd f8 c0 2e bd dc 7d 7b bd
       0.007806506 -0.08233097 -0.042664498 -0.061399326
000200 8d e6 f5 3c a4 41 6d bd 1e 4f 06 3d c2 fc 76 bd
       0.030017162 -0.057923928 0.032790296 -0.060299642
000210 1f 1c a3 3c 6c f5 a4 3d 19 2a 2b bd 57 69 b9 bc
       0.01991087 0.08054623 -0.041788194 -0.022633238
000220 ba 30 dd 3c 4e 0a 5b 3d 33 6c 11 3c 56 cd 1f bd
       0.027000774 0.053476624 0.008875894 -0.039014183
000230 56 15 1c 3d c4 8a 20 3c 33 9d f1 bd 32 9b bd 3c
       0.038106285 0.009798709 -0.117975615 0.023145292
000240 05 5c 85 bd c8 72 ff bd 04 3d 2a 3c 8d 05 a4 bd
       -0.06511692 -0.12473065 0.010390524 -0.08008871
000250 b9 46 be 3c b4 1f 04 3c e8 23 00 bd 3d af eb 3c
       0.023227083 0.008064199 -0.031284243 0.028770084
000260 b2 6d 7e 3d 5a 8a 0e 3d c2 38 34 3d be 43 3f 3d
       0.062116332 0.03479991 0.04399944 0.046695463
000270 50 59 51 3d d0 be c7 3d 5a 60 43 3e 7f 1b ff ba
       0.051110566 0.097531915 0.19079724 -0.001946315
000280 dd d3 24 be 64 9c f2 3c 7c cf 8e 3c 3e 43 13 3d
       -0.16096444 0.029615588 0.01743292 0.0359528
000290 f4 b9 39 3c b8 06 b6 be d0 ef f5 bc 4e 81 1d be
       0.011335839 -0.35552 -0.030021578 -0.15381357
0002a0 4c 60 42 bc 86 75 7f bc 76 aa 54 bd af 15 86 bd
       -0.011863779 -0.015591985 -0.051920377 -0.065471046
0002b0 2c 72 82 3a c9 99 21 be 0f 5e 30 be 4a db 0c 3e
       0.0009952239 -0.1578132 -0.1722338 0.13755527
0002c0 96 dd 1d 3d 5a 2b e5 bc 69 91 ab bd 15 27 ee 3d
       0.0385414 -0.027974773 -0.08377344 0.11628548
0002d0 59 4d d4 3c 7f 24 78 3c 9d 2c 85 3d 8a f7 3c 3c
       0.025915788 0.01514542 0.0650265 0.011533627
0002e0 30 74 b5 bc 8a 13 07 bd 96 e9 34 bd 8b 13 a3 bd
       -0.02215013 -0.03297762 -0.044168077 -0.07962712
0002f0 95 d7 99 bd c1 e8 c4 3d 1d ce 67 3e ec 86 57 3d
       -0.07511822 0.09614707 0.2263722 0.052618906
000300 64 33 db bb 4f 65 06 bd 6c d6 93 3c b5 c4 9a 3d
       -0.006689476 -0.03281146 0.01804658 0.0755705
000310 4d d9 f6 bc 42 6a db 3d 8c ce 7f 3b 11 87 70 3e
       -0.030132914 0.107136264 0.0039033024 0.23489024
000320 91 ad 84 3c 1b e3 8b bc b5 7c a3 3d 61 e7 bc bc
       0.016196044 -0.017076066 0.0798277 -0.023059549
000330 c2 bb bf bc 0a b2 04 ba d0 6d 0a 3d 0c 32 fc 3c
       -0.02340496 -0.000506193 0.03379613 0.030785583
000340 63 a4 63 3c 40 05 ac bc 9f d3 23 3d 80 11 b6 3c
       0.013894173 -0.020998597 0.03999674 0.022225142
000350 6a 50 e1 bc 10 28 5b bd 27 a9 b3 3c 30 e5 44 bd
       -0.027504165 -0.053505003 0.021931244 -0.048070133
000360 c5 9a 19 3d 53 32 e3 bc 6f 75 96 bd e2 7c 99 3c
       0.037501115 -0.027733957 -0.073466174 0.018736307
000370 95 0d ad bb 07 ad 2f be 6f f4 a1 bc cd 0e 2c bd
       -0.00528116 -0.17155848 -0.019769875 -0.042006303
000380 af ad b7 bc d8 54 2e 3d ae 67 ee bc aa 65 12 3d
       -0.022421686 0.042561382 -0.029102173 0.035741486
000390 9f ac 03 bc c3 d1 46 bd 42 f8 21 3d 00 0d 34 bd
       -0.008036762 -0.048539888 0.039543398 -0.04395771
0003a0 90 d4 2b bd 75 1f 1b bd ae 9d 5e bc 89 2a 1c 3d
       -0.041950762 -0.037871797 -0.013587398 0.038126502
0003b0 86 a5 3c bd 61 8a e1 39 e1 e1 e6 3d 62 2c 8d bd
       -0.046056293 0.00043018445 0.11273552 -0.06893231
0003c0 f6 93 66 3d 58 a8 04 3e c5 08 ab bc 2b 3d 41 3d
       0.05629345 0.12954843 -0.020878205 0.047177475
0003d0 7f 97 c0 bc 52 96 bb ba 38 4b 47 3c 6b 46 6b bc
       -0.023509739 -0.0014311767 0.01216393 -0.014360051
0003e0 69 a8 77 bd aa cf 1d bd 5d f4 65 3b db 77 09 bd
       -0.060463343 -0.038528122 0.0035088279 -0.03356157
0003f0 32 26 4f bd da da 09 bd da 2a 32 be 8e 27 ee bb
       -0.050573535 -0.03365598 -0.17399159 -0.007267899

context_transformer_0/ffn_layer_0/intermediate_dense/einsum/Einsum;context_transformer_0/ffn_layer_0/intermediate_dense/Relu;context_transformer_0/ffn_layer_0/intermediate_dense/add f4 [32]
000000 4c 56 09 bf fb 0d 68 be dd 6e 8c be 73 a0 51 be
       -0.53647304 -0.22661583 -0.27428332 -0.20471363
000010 d3 e0 96 be 39 40 9f be c2 3e 94 be b4 a9 c2 be
       -0.29468402 -0.31103685 -0.2895413 -0.38020098
000020 ba 95 bb be a2 76 b5 be ef 23 90 3d cc 51 95 be
       -0.3663767 -0.35442072 0.07038104 -0.2916397
000030 bd 04 e5 bd e7 1a 75 be 63 7d b6 be 75 42 a0 be
       -0.111825444 -0.23936044 -0.35642537 -0.31300703
000040 9c a6 b5 be ad 4c 89 be 5a 0a 7d bd d5 4d 8a be
       -0.35478675 -0.2681631 -0.06177745 -0.27012506
000050 da 90 de be 6b 33 96 be 9a 04 a6 be 28 66 80 bd
       -0.43469888 -0.29336104 -0.32425386 -0.06269485
000060 b9 21 1c be 28 ef e2 be 0b 8b bb be fd 86 cb be
       -0.15247239 -0.44323087 -0.3662952 -0.39751425
000070 6d 4f be bc e0 84 1d be ae be 6e be d8 1d d0 bd
       -0.023231233 -0.15382719 -0.23314926 -0.10161942

context_transformer_0/attention/norm/mul;context_transformer_0/attention/norm/add;context_transformer_0/ffn_layer_0/intermediate_dense/einsum/Einsum;context_transformer_0/ffn_layer_0/intermediate_dense/Relu;context_transformer_0/ffn_layer_0/intermediate_dense/add f4 [32, 32]
000000 f9 db 0c be c4 3c 33 bc 8c 7e f9 3d 82 a2 63 bd
       -0.13755788 -0.010939781 0.1218234 -0.0555749
000010 0a 60 a2 be a5 72 0c be 0a d7 4b be 4a 78 9f ba
       -0.31713897 -0.13715608 -0.1990625 -0.0012166586
000020 d9 48 96 3e 4f 7d 05 3e fc b4 2c be ad 2f 0b bd
       0.29352453 0.13036083 -0.16865915 -0.033981014
000030 54 01 40 be 99 33 69 3e a0 13 38 3d e0 b1 ec bd
       -0.18750507 0.22773589 0.04494059 -0.115573645
000040 9f ae 52 bc 10 30 5f be 43 9b 25 bd fd 07 63 3e
       -0.012859016 -0.21795678 -0.040431272 0.22171016
000050 5c 27 ab be 9c ac bd bd b5 14 54 be a7 05 5f be
       -0.33428466 -0.09261438 -0.20711024 -0.217795
000060 1a 06 69 be 45 68 d6 bd d5 dd 02 be 5f f4 36 bd
       -0.22756234 -0.104691066 -0.12779935 -0.044666644
000070 86 b6 65 be ee 93 1d 3c cd 0f ff 3c 56 d4 9d bc
       -0.22432908 0.009617789 0.031135464 -0.019266289
000080 b9 95 8f be 03 f0 6d be 16 ce 06 bd 08 1a 9a be
       -0.28043917 -0.23236088 -0.032911383 -0.30097985
000090 68 f7 4f be 26 87 98 3e 0d 94 27 be f6 4a 89 3e
       -0.20309222 0.2979061 -0.1636507 0.26815003
0000a0 1a f5 6a 3e f8 0d 05 be 74 d7 a8 bd e9 3a 7e be
       0.22945061 -0.1299361 -0.082442194 -0.2482716
0000b0 34 c9 1b bd 41 cc b8 be 49 22 6b 3e db d7 ac bb
       -0.03803368 -0.36093333 0.22962297 -0.0052747554
0000c0 bc 5f 54 3c d4 0a 60 3e b1 9c 90 3e 92 00 e8 ba
       0.012962278 0.2187913 0.28244546 -0.0017700365
0000d0 68 be 96 3c 4e be 96 be aa 4d e0 3d 00 00 8a 3e
       0.01840134 -0.29442066 0.10952313 0.26953125
0000e0 0f a4 26 be f2 2f 2e bd 03 d1 4f bd 2b 1b 68 3c
       -0.16273521 -0.042526193 -0.05073644 0.014166634
0000f0 d0 61 15 be e9 1d 8e bd 76 36 49 be 17 d9 a3 bd
       -0.14588094 -0.06939299 -0.19649681 -0.08000391
000100 2a ef 6a be 0f 96 b3 3d 24 7d 9c 3e cb d1 56 be
       -0.22942796 0.08768856 0.30564225 -0.20978467
000110 bf 1a ec 3e 2d 16 32 be b5 75 34 3d 93 aa 95 3d
       0.46114156 -0.17391272 0.044057567 0.07307925
000120 2b cd ad 3a 58 a0 a2 be 98 1a 33 3d 55 e6 86 bd
       0.0013259997 -0.31762958 0.043726534 -0.06586901
000130 d8 e8 74 3d 59 67 2e 3e 4b 89 97 be 79 e4 05 be
       0.05979237 0.17031612 -0.29596934 -0.13075437
000140 e1 75 14 be b0 11 19 3d d8 f7 1e bc 13 9e 69 be
       -0.14498092 0.037370384 -0.009702645 -0.22814207
000150 22 df a8 bd 2e 31 8c 3d 46 d6 5a be e5 d5 8f 3d
       -0.08245684 0.06845318 -0.21370801 0.07023219
000160 b6 8f 8b bd c2 d5 7a be 01 75 5e 3d 3f 99 96 3e
       -0.0681452 -0.24495605 0.054310802 0.29413792
000170 06 8d 32 be 93 14 c8 bd 56 0d cb be 36 3a 20 be
       -0.17436609 -0.09769549 -0.39658612 -0.15647206
000180 f6 ab df 3d 37 dc 4e be c0 c8 5a 3d 5e d8 fc bc
       0.10921471 -0.20201193 0.053414106 -0.03086489
000190 63 23 b1 3e 26 3f d6 3d 48 3d a4 be e4 ed 04 3d
       0.3459731 0.10461263 -0.32078004 0.032453433
0001a0 89 1e 38 3e d7 b4 a7 bd be 6b b4 3d eb 20 3d bc
       0.17980398 -0.08188789 0.08809613 -0.011543493
0001b0 75 ad 06 3d 59 c0 3d bd 8b 7c 8c be a1 8b 7d be
       0.032880265 -0.046326015 -0.2743877 -0.24760295
0001c0 a5 0b 1a be 5a a7 23 be b0 68 b3 3d 84 24 47 3e
       -0.15043505 -0.15981808 0.08760202 0.19447523
0001d0 58 9c ec be ff 9c c5 bc 0b 6a 92 be 25 5f df bd
       -0.4621303 -0.024122713 -0.2859653 -0.10906819
0001e0 d6 5c 18 3d 28 99 ca 3e be ca b4 3c 1a a0 96 bc
       0.03719791 0.39569974 0.022069331 -0.01838689
0001f0 c8 a2 c5 be 94 c9 5b be 33 14 5b be 8a 38 10 3e
       -0.38600755 -0.21463615 -0.21394424 0.14084068
000200 ba a6 10 bf 91 15 03 be c5 c0 26 3e 50 ee 14 be
       -0.56504405 -0.12801196 0.16284473 -0.14544034
000210 ce ba d3 3e f0 27 bf 3d e0 10 1a be db 1b 9c bd
       0.41353458 0.09333789 -0.150455 -0.076225005
000220 26 aa 35 3e a8 55 45 be 8c f5 46 bd 9c a7 a8 be
       0.17740688 -0.19270957 -0.048574015 -0.32940376
000230 fe 78 7e bb ae 08 57 3d 8a 44 29 3e 2c 1e 2a 3e
       -0.0038829441 0.052498512 0.16530052 0.16613072
000240 51 4b 4b 3b 13 a9 69 bc 50 83 88 3d 63 ef fa 3d
       0.0031020234 -0.014261502 0.06665671 0.12252691
000250 0c 5e 8e be b1 37 37 3d 51 69 9f bd 72 ac af 3d
       -0.27806127 0.044730846 -0.077837594 0.08577813
000260 d5 9c 49 3d da f6 de 3b f1 9f 87 be 40 6f c7 3d
       0.049221832 0.0068043293 -0.26489213 0.09738016
000270 cf 0f 4d be 42 bf 20 3d 85 f6 44 be c5 78 88 be
       -0.20025562 0.039244898 -0.19234665 -0.2665464
000280 66 c3 a3 bd ec e9 28 be ce 51 c1 3d 13 65 46 be
       -0.07996254 -0.16495484 0.09439431 -0.19374494
000290 94 de 88 3e 69 51 0b be af 2a 6b be 55 bd 88 3c
       0.26732314 -0.13605274 -0.22965501 0.016691843
0002a0 14 e4 09 3e 79 c0 07 be 9b b4 c5 3d 69 89 27 3c
       0.13465911 -0.13257016 0.096535884 0.010225632
0002b0 3c b6 ec 3d d2 8c be bd e1 77 85 be ab 73 4c be
       0.11558196 -0.09304203 -0.26068023 -0.19965999
0002c0 d4 7c 78 bd 79 af 57 3e c0 24 98 3e 67 25 28 3e
       -0.06066592 0.21063031 0.29715538 0.16420518
0002d0 97 5e 95 bd 04 ff 0e bf 76 01 34 3d 01 ae 13 3e
       -0.07293432 -0.5585787 0.043946706 0.14421846
0002e0 bb a6 ae be ca 2f 35 bf 91 cc 8a 3e 2a 79 8a 3e
       -0.3411158 -0.70776045 0.27109197 0.27045566
0002f0 28 be cd 3d d7 94 be 3e ad 6c 16 be 12 a0 71 be
       0.10046035 0.3722293 -0.14689894 -0.23596218
000300 bd e7 95 bd 94 15 a9 3e 6c e5 86 bd bb 8e 41 be
       -0.07319591 0.33024275 -0.065867275 -0.18902104
000310 3c 5b 81 3d 37 93 be bb 20 ed fe 3d 9a c9 86 bb
       0.0631623 -0.005815889 0.12447572 -0.0041133882
000320 af 7e 02 3e 5c 24 38 be 7e f6 84 3c b0 af a1 3c
       0.12743638 -0.1798262 0.016230818 0.019737095
000330 f5 7d c5 be 60 ef 9d 3e 34 4a a2 3e e8 2d 55 be
       -0.3857266 0.3084669 0.31697237 -0.20818293
000340 bf 9e 13 be d0 ab 38 bd ac f7 8e bc ec 08 2c bd
       -0.14416026 -0.04508573 -0.017452084 -0.042000696
000350 a1 b3 f8 bd 9f 2a 7a bd a5 aa 8c bc ef 26 3b 3d
       -0.121436365 -0.061075803 -0.017171213 0.045691427
000360 8f 9e 8c be 29 0a 7e 3d 1b 2b d6 3e 56 18 3e be
       -0.2746472 0.06202141 0.41829762 -0.18563971
000370 a5 38 41 be fe 14 15 3d 72 62 04 3e 3a f4 a1 bc
       -0.18869264 0.036396973 0.12928179 -0.019769777
000380 c4 e7 30 3e ac 79 f0 3e 31 c1 36 be fa 99 44 3d
       0.17275912 0.46967828 -0.17847134 0.047998406
000390 2c 6a 2b be 43 43 37 bd 55 fc 9c be 80 ba c8 3d
       -0.1673972 -0.04474188 -0.30661264 0.09801197
0003a0 d6 fc c3 3b d2 40 98 3e 42 12 c3 3c e6 f8 24 3e
       0.005981068 0.29736954 0.023812417 0.16110572
0003b0 48 81 6c be 0a 11 08 be 8d e3 1d be 84 69 17 3a
       -0.23096192 -0.1328775 -0.15418835 0.0005775916
0003c0 e0 e1 46 bd 5e 06 cf bd 72 23 31 be 21 07 74 3d
       -0.048555255 -0.10108636 -0.17298678 0.05957711
0003d0 e7 8a 20 be 26 4a 4e be 2b fb 2d be 5c 45 68 be
       -0.15677987 -0.20145473 -0.16990344 -0.22682709
0003e0 43 b8 fb bb 5d 34 2e be 6f 12 37 3e 7b 38 9f 3e
       -0.007681878 -0.17012163 0.17878126 0.3109778
0003f0 89 15 c4 bd ab ff 1e be 10 fa ff bc 93 39 3a be
       -0.0957442 -0.15527217 -0.031247169 -0.18186025

context_transformer_0/ffn_layer_1/intermediate_dense/einsum/Einsum;context_transformer_0/ffn_layer_1/intermediate_dense/Relu;context_transformer_0/ffn_layer_1/intermediate_dense/add f4 [32]
000000 a3 c4 1f be e5 fa ce be 98 99 e4 bd 3f 27 91 be
       -0.15602355 -0.40425792 -0.11162108 -0.28350255
000010 19 23 6a 3e 9c a1 de bd c8 b5 0e be 2c 08 97 be
       0.22864951 -0.10870668 -0.13936532 -0.29498422
000020 89 7d 52 be c3 1e 60 bc b0 23 d4 bc f6 0c c0 bd
       -0.205557 -0.013679209 -0.025895923 -0.09377472
000030 8c 12 07 be 6d b3 a1 be 31 ac 92 be 70 fd 07 be
       -0.13190669 -0.31582204 -0.28646997 -0.13280272
000040 f1 a6 00 3c 70 a2 83 3d d1 06 26 be bb 00 a4 be
       0.007852302 0.06427467 -0.16213538 -0.32031807
000050 45 19 d0 bd 30 96 a5 be 52 c6 50 be 6b 42 e0 bd
       -0.1016107 -0.32341146 -0.20388153 -0.10950168
000060 21 e9 1c bc 53 53 af bd 03 18 df bd 34 7b 6f be
       -0.009577067 -0.08560815 -0.10893252 -0.23386842
000070 cb 27 32 be 11 14 ef bc 9b f3 25 be 97 a3 b2 be
       -0.17397992 -0.029184373 -0.1620621 -0.34890434

context_transformer_0/ffn_layer_0/norm/mul;context_transformer_0/ffn_layer_0/norm/add;context_transformer_0/ffn_layer_1/intermediate_dense/einsum/Einsum;context_transformer_0/ffn_layer_1/intermediate_dense/Relu;context_transformer_0/ffn_layer_1/intermediate_dense/add f4 [32, 32]
000000 57 a2 eb bd 56 86 44 3e de bc a2 3e a9 97 4f be
       -0.11505573 0.1919187 0.3178472 -0.20272698
000010 33 10 00 3c 67 c7 c3 3e 6e 3c 52 3d 3c 61 11 be
       0.007816362 0.3823807 0.05132716 -0.14197248
000020 bc 5c 00 3c 6c e1 6d 3d c6 40 d4 3d af ab 96 3e
       0.00783461 0.058076307 0.10363917 0.2942786
000030 20 ce 44 be 2b c6 c0 3d be 76 e5 3d 5d 3d 87 be
       -0.19219255 0.094127975 0.11204289 -0.26414004
000040 c7 72 15 be a3 1e 5b 3e 07 00 8e be 8b 15 87 3e
       -0.14594565 0.21398406 -0.27734396 0.26383623
000050 bb 56 cf bb 02 de 10 3e 90 8f 49 3e 14 61 06 3d
       -0.0063274777 0.1414719 0.19683671 0.032807425
000060 dc 97 2c 3d 53 19 cb bd 89 aa 85 bd 1e ed ad bd
       0.042137012 -0.099169396 -0.065266676 -0.08492492
000070 61 5b d6 bd bd b8 a0 3e 19 40 98 bc e6 c1 2c be
       -0.10466648 0.31390944 -0.018585252 -0.16870841
000080 50 7d 17 bd ac 1f 32 3e 24 87 a5 be e1 c4 5f 3e
       -0.03698474 0.17394894 -0.32329667 0.21852447
000090 4a 20 19 3e 8f c4 c3 bc 47 9e df 3c 6b 62 a6 bd
       0.14953724 -0.023897437 0.027297152 -0.081242405
0000a0 cf 2b 68 bd a9 d5 98 3e 2a c6 6a be e0 5a 06 bd
       -0.056682404 0.2985051 -0.22927156 -0.03280151
0000b0 c2 6c f1 3d 65 15 b7 3d ab ae 87 3d 27 96 51 3e
       0.11788322 0.089396276 0.06625112 0.20467435
0000c0 72 f7 19 3e 5a 7f 41 3e 8b 77 db bd 9f c3 51 3e
       0.15035799 0.18896237 -0.107161604 0.2048478
0000d0 3e 9f 32 3d a3 58 2f be c2 8b 0a 3d 1a 56 85 be
       0.043608896 -0.17123656 0.03382469 -0.26042253
0000e0 e3 16 39 bd 92 a0 91 3d e3 f7 23 be 1b 3e e1 3b
       -0.045187842 0.071107045 -0.1601253 0.0068738586
0000f0 0c bc ca 3c 4c f4 9a 3d 91 e2 11 3e 68 ae 0d 3d
       0.02474787 0.07566127 0.14246584 0.034590155
000100 29 38 9f bd 53 b4 fb 3d b8 43 9b bc 71 df 84 bd
       -0.077743836 0.122902535 -0.01895319 -0.064879306
000110 f1 3f a8 bd 47 66 16 3e ee 00 c3 bd 3f 00 d6 be
       -0.08215321 0.14687453 -0.09521662 -0.41797063
000120 b2 64 2e 3e 37 10 9a 3d ec 29 c8 bc 3e 32 64 be
       0.170306 0.07522624 -0.024434052 -0.22284791
000130 4d 0b 0e be 5b 0f 95 be 63 ca aa 3e d6 52 dd bd
       -0.13871498 -0.29113278 0.33357534 -0.10806815
000140 e3 5d 76 3e 7c 88 29 3d ae ca f5 3d a2 8c 90 3d
       0.24059252 0.041389927 0.12001549 0.070580736
000150 54 fd a8 3d d3 7f 87 be 7e 27 a7 3e 31 c7 bf 3d
       0.082514435 -0.2646471 0.32647318 0.093641646
000160 41 1d be bc 29 a3 19 3e 28 f0 1e 3d 76 e7 08 be
       -0.023207309 0.15003647 0.03880325 -0.13369545
000170 93 5d 17 bd 33 20 96 bd 6f 7c e2 bd 36 10 e9 bd
       -0.036954474 -0.0733036 -0.1105889 -0.11380045
000180 b1 23 0a 3e f1 d3 ea bd c0 dd a7 be 64 c1 96 3e
       0.13490178 -0.11466206 -0.3278637 0.2944442
000190 1a 77 01 bd 71 ed 20 3d 61 8e 23 3e 5e c0 80 be
       -0.031607725 0.03928894 0.15972282 -0.25146765
0001a0 5a e2 74 3d 4e 2e 55 be f6 9b 4f bd bd d2 fa bd
       0.05978618 -0.20818445 -0.050685845 -0.122472264
0001b0 bf e8 b6 bd 1a 9c 3f 3e 76 6c 50 bd 10 a7 52 bd
       -0.089311115 0.18711892 -0.050884686 -0.051428854
0001c0 90 0b 28 3d 34 07 8e 3e ae 4e 42 3e c9 07 45 be
       0.04102665 0.2773987 0.18975326 -0.19241251
0001d0 95 8b cf bd 4f 4a 8e be 1f d9 ea bd 21 84 86 3d
       -0.10134045 -0.27791068 -0.11467194 0.0656817
0001e0 6d 13 8a 3d 9f 3a 0c 3f e4 bd 7c bc 30 49 1d be
       0.067419864 0.5477695 -0.015426133 -0.1535995
0001f0 c9 bd 03 be e1 17 ae bd 7c 6f e0 bd da 3e 95 3c
       -0.12865366 -0.08500648 -0.10958764 0.018218447
000200 04 12 f1 3d 62 12 b0 bc 62 bc a4 3d 2e 72 81 3d
       0.11771014 -0.02149314 0.08043744 0.06320606
000210 19 01 3f 3e 7b f3 c5 3d ed 16 6c be e8 9e 19 be
       0.18652762 0.09665581 -0.2305562 -0.15002024
000220 f5 30 24 3e 3d 69 f2 bd 9f 26 69 3c 10 67 bc 3d
       0.160343 -0.11836479 0.014230399 0.09199345
000230 aa df da bd 19 f0 a8 bd 2e fd 84 bd 27 92 8f be
       -0.10687192 -0.0824892 -0.06493603 -0.28041193
000240 7c 11 52 bd 41 be 6a be 34 6b bf 3c d7 d5 a3 3e
       -0.051286206 -0.22924139 0.023366548 0.31999084
000250 85 20 12 bf 11 b0 81 3c 4d 0a 9f be a3 c7 e4 bd
       -0.5708087 0.015831025 -0.31062546 -0.1117089
000260 92 0f c9 bd da f6 06 3e c9 21 90 3c 4d 93 99 3d
       -0.09817423 0.13180104 0.017594235 0.074987985
000270 78 ad 9c be fb d8 8d bc d5 ae f8 bd 78 a5 82 3d
       -0.30601096 -0.017315378 -0.121427216 0.06379217
000280 cd d3 a6 be a5 02 53 be 47 3a 47 3d fd bf 97 bd
       -0.32583466 -0.20606478 0.048639562 -0.07409666
000290 b9 e6 ec 3e 06 95 4a 3b 2b 1b 24 3e 11 b4 fc bb
       0.46269777 0.0030911579 0.16025989 -0.0077118953
0002a0 83 c8 a3 3d 50 d6 89 3e ff 7f 00 3e e4 97 c5 3c
       0.07997229 0.2692132 0.12548827 0.024120279
0002b0 9f 50 0f be 72 f2 98 3e f5 97 a0 3e 19 92 58 bd
       -0.13995598 0.2987247 0.31365934 -0.052873705
0002c0 9f 27 47 3e eb f1 83 3e 78 f4 b3 bd ee fb 82 3d
       0.19448708 0.25770506 -0.08786863 0.06395708
0002d0 e8 af ee bd cc 62 91 be a6 a8 28 be 38 d5 fb 3c
       -0.11654645 -0.2839569 -0.16470584 0.030741319
0002e0 61 c0 e1 be ed c3 f7 bd 21 d1 c1 3d fc 84 7a 3e
       -0.44092086 -0.12097917 0.09463716 0.24464792
0002f0 cf 62 c2 3d d4 71 47 be 40 42 6a bd ce a1 b7 bc
       0.094915025 -0.19477016 -0.057192087 -0.022416022
000300 0a 0e 41 3e 85 e7 15 3d 38 82 79 be 38 43 86 3e
       0.18853012 0.036597747 -0.24366081 0.2622316
000310 43 39 d7 3e 95 41 5e be 44 7f ba 3d 60 3c 92 3e
       0.42035875 -0.21704705 0.09106305 0.28561687
000320 a5 3d f9 3d f4 00 0c be 2b a2 ff 3d 20 ee b3 3b
       0.12169961 -0.13672239 0.12482103 0.005491033
000330 d1 63 a4 be 3c c9 b9 3d f9 e4 d0 bc f4 af 15 be
       -0.32107404 0.090715855 -0.025499808 -0.14617902
000340 b9 7c 22 be 63 12 af be ce 2a 04 3e be 5b b0 bd
       -0.1586789 -0.34193715 0.12906954 -0.086112484
000350 a4 6b 23 bd 6b 03 e0 bd 2a 01 e8 3d 88 52 da bd
       -0.039897576 -0.10938152 0.11328347 -0.10660273
000360 93 32 8c 3d da 05 a9 3e d1 b0 c6 3e fd 58 c9 be
       0.06845584 0.33012277 0.38806775 -0.39325705
000370 cb 96 db bd e2 4c 40 3d e9 b5 04 3e c4 3d b6 3d
       -0.10722121 0.04694832 0.12960018 0.088984996
000380 21 19 43 be 55 6d 40 bd 4b d9 e7 bc ea d1 77 3d
       -0.19052555 -0.046979267 -0.028301856 0.060502924
000390 29 4f bd bd 52 f7 99 3e 15 2f 19 3e e4 ce 99 be
       -0.09243614 0.30071503 0.14959367 -0.30040658
0003a0 4b 6c 1d 3e 5a 42 35 3e 8e 02 33 bd d5 b2 51 3d
       0.15373342 0.17701092 -0.04370361 0.05119594
0003b0 f6 d9 0a 3e ff b6 58 be 5e 46 ca 3d 20 f6 b9 3d
       0.13559708 -0.21163557 0.09876703 0.09080148
0003c0 7d c5 37 be 05 83 c3 bb a6 ba 91 3c f5 5f 66 3d
       -0.1794643 -0.0059665465 0.017789196 0.056243856
0003d0 f1 3e 14 be 90 25 a1 be 34 1e 26 bb 9a 10 c2 3e
       -0.14477135 -0.3147397 -0.0025347592 0.3790329
0003e0 02 8f 42 bd 35 65 53 3e bc fe 36 be 05 ca fa 3c
       -0.047499664 0.20644076 -0.17870611 0.030613909
0003f0 f9 ab 0b be 86 9b 8a 3e 2b d7 9a be 3c f1 46 bc
       -0.13639821 0.2707178 -0.30242285 -0.012142476

context_transformer_0/ffn_layer_2/intermediate_dense/einsum/Einsum;context_transformer_0/ffn_layer_2/intermediate_dense/Relu;context_transformer_0/ffn_layer_2/intermediate_dense/add f4 [32]
000000 1d f1 60 be 6c f5 19 3d f5 11 3d 3e b8 02 e4 bd
       -0.21966977 0.03758757 0.18463881 -0.11133331
000010 65 e1 bf be 75 e5 e8 bd 16 03 44 3e 02 3b 5a be
       -0.3747665 -0.113718905 0.19141802 -0.21311572
000020 dc e3 ef bc 37 af fb bd 35 ce c1 3d 92 92 68 be
       -0.029283457 -0.12289279 0.09463159 -0.22712162
000030 e5 c6 08 3e 2b c2 cb bd 28 17 2e 3d 64 22 a6 3b
       0.13357122 -0.09949144 0.042502552 0.0050700177
000040 e1 a5 3b be b1 5f 1e 3d f9 2f fc bd 4d 39 38 3e
       -0.18324997 0.038665477 -0.123138376 0.17990609
000050 4c 8e 19 be 68 2a 64 be ec 0a 38 be 03 33 8d be
       -0.14995688 -0.22281802 -0.17972916 -0.2757798
000060 56 4b 5b be 69 d2 9a bd e7 8e 1a 3e e9 83 a1 be
       -0.21415457 -0.07559664 0.15093575 -0.31545952
000070 9c 32 be 3d e7 8a 1b 3d 65 fe 31 3c 94 c5 aa 3b
       0.09286997 0.037974264 0.010863875 0.0052115414
